Taxi-v2/model.npy (npy, 24128 bytes, 1 tensors)

array f8 [500, 6]
0.0 0.0 0.0 0.0 0.0 0.0 -1.12534803626267 -1.1253472627661054
-1.1253480364915036 -1.125347591703609 -1.1253435984035374 -10.125346511794042 -1.125343596968605 -1.1253077223443686 -1.1253435974679806 -1.1253077294849032
-1.1249858841969522 -10.12530765560798 -1.1253480860496385 -1.1253480364945383 -1.125348085883062 -1.125348036510026 -1.1253475917127647 -10.125170735276814
-1.1253480922578758 -1.1253480922624777 -1.1253480922578758 -1.12534809225962 -10.048651960338324 -10.102577062288422 0.0 0.0
0.0 0.0 0.0 0.0 -1.125348092266352 -1.1253480922664134 -1.125348092266352 -1.125348092266415
-9.247145318132091 -10.051188678865485 -1.125348092189408 -1.125348092243544 -1.125348092189408 -1.1253480922187347 -9.24714532045245 -9.247145315557068
-1.1253480365117536 -1.1253480708941868 -1.1253480746244793 -1.1253480840315904 -10.048652403333138 -9.870469975166817 -1.1253480922578758 -1.1253480922585541
-1.1253480922613828 -1.1253480922652515 -10.124476573196938 -10.050504607972583 0.0 0.0 0.0 0.0
0.0 0.0 -1.125348092189408 -1.1253480922031716 -1.1253480922263839 -1.1253480922201242 -9.214293173996092 -10.1247029980394
-1.125348092266352 -1.125348092266415 -1.125348092266352 -1.125348092266415 -7.098562753665245 -9.247145320429341 -1.1253480922578758 -1.1253480922639445
-1.1253480922578758 -1.125348092260142 -10.05141801377798 -7.098562753665245 -1.125348092266352 -1.1253480922664416 -1.125348092266352 -1.1253480922664372
-10.118891040230643 -9.247145320431189 0.0 0.0 0.0 0.0 0.0 0.0
-0.8632489661813717 1.2277212380394484 -0.8632489662026326 1.2277212380394467 -7.772278761960552 20.0 -1.1253077473360067 -1.1253435957960112
-1.1253077473360067 -1.1253435983981759 -10.125330801261244 -1.1253475872194485 -1.1220962664695753 -1.1249854534563235 -1.1253069058552914 -1.1249682491633346
-10.124462016136766 -1.1253077473301976 -1.1253435984035374 -1.1253475917061018 -1.1253435984035374 -1.125347591712757 -10.125347278730255 -1.1253480316243416
0.0 0.0 0.0 0.0 0.0 0.0 -1.1253480860538772 -1.1253480364958683
-1.1253480364918471 -1.1253475917127647 -10.123542273699815 -10.124824105518236 -1.1253475915046014 -1.1253435981840272 -1.1253435983841387 -1.1253077473360067
-10.124819668423704 -10.125342519885285 -1.1253480914028091 -1.125348086055927 -1.1253480860560563 -1.1253480365117536 -10.125347848627934 -10.125260785484665
-1.125348092189408 -1.1253480922433408 -1.1253480922180283 -1.1253480922319505 -9.870543067030752 -9.246919926781437 0.0 0.0
0.0 0.0 0.0 0.0 -1.1253480922655024 -1.125348092266133 -1.1253480922655972 -1.125348092266298
-9.870526705643172 -9.247145291722987 -1.1253480915747178 -1.1253480918180392 -1.1253480919000403 -1.1253480918901309 -9.247141132097658 -9.247144638521341
-1.1253480860561613 -1.125348089773019 -1.125348089773019 -1.1253480860561613 -10.051418013106282 -9.247145316647824 -1.1253480922655024 -1.1253480922659036
-1.1253480922655972 -1.1253480922655024 -10.043862053231518 -10.103344974637686 0.0 0.0 0.0 0.0
0.0 0.0 -1.1253480922578758 -1.1253480922634596 -1.1253480922639472 -1.1253480922578758 -9.247145320366544 -9.811874186444104
-1.1253480922655024 -1.1253480922655972 -1.1253480922655972 -1.125348092266045 -9.870542903390282 -9.87054306907035 -1.125348092189408 -1.125348092234543
-1.12534809221786 -1.125348092262378 -9.870543068106429 -9.844726332900628 -1.1253480922655024 -1.1253480922655972 -1.125348092265956 -1.1253480922657781
-7.098562753665245 -9.870543069070566 0.0 0.0 0.0 0.0 0.0 0.0
-0.9719436024937667 -0.9719436024937667 -0.9719436024937667 1.2277212380394484 -7.098562753665245 -7.098562753665245 -1.1249858841969522 -1.1252778256554703
-1.1252046202372759 -1.1252855063143192 -9.246978285849284 -9.247116612005492 -1.1249845674942986 -1.1252046202372759 -1.1252046202372759 -1.1249843694307942
-7.098562753665245 -9.86476539503623 -1.1253077473360067 -1.125328898333398 -1.1253392276837668 -1.1253158850874883 -9.214293173996092 -7.098562753665245
0.0 0.0 0.0 0.0 0.0 0.0 -1.1253480915747178 -1.1253480921672805
-1.1253480922265835 -1.1253480919048227 -10.051415427170056 -9.247145320404012 -1.1253480365117536 -1.1253480629163044 -1.1253480878714053 -1.1253480427246325
00000000: 0000 0000 0000 0000 0000 0000 0000 0000
00000010: 0000 0000 0000 0000 0000 0000 0000 0000
00000020: 0000 0000 0000 0000 0000 0000 0000 0000
00000030: 18db 45f1 6c01 f2bf a093 a321 6c01 f2bf
00000040: c794 55f1 6c01 f2bf 63fd ef79 6c01 f2bf
00000050: 987f fe49 6801 f2bf 6ca5 016b 2d40 24c0
00000060: ffe3 9b49 6801 f2bf 287c 96ab 4201 f2bf
00000070: 1b35 be49 6801 f2bf c52d 81ad 4201 f2bf
00000080: 9e66 d132 f1ff f1bf a68c 3553 2840 24c0
00000090: b530 a3fe 6c01 f2bf 2aca 55f1 6c01 f2bf
000000a0: 43be 97fe 6c01 f2bf a0da 56f1 6c01 f2bf
000000b0: 749e f079 6c01 f2bf 42dc ec60 1640 24c0
000000c0: 2cd1 4d00 6d01 f2bf 2122 4e00 6d01 f2bf
000000d0: 2cd1 4d00 6d01 f2bf dbef 4d00 6d01 f2bf
000000e0: 2b14 e5e8 e818 24c0 72b2 0ffb 8434 24c0
000000f0: 0000 0000 0000 0000 0000 0000 0000 0000
00000100: 0000 0000 0000 0000 0000 0000 0000 0000
00000110: 0000 0000 0000 0000 0000 0000 0000 0000
00000120: 4966 4e00 6d01 f2bf 5e67 4e00 6d01 f2bf
00000130: 4966 4e00 6d01 f2bf 6567 4e00 6d01 f2bf
00000140: 4479 c5d4 897e 22c0 2f4e 0b67 351a 24c0
00000150: ac1c 4900 6d01 f2bf 0bd5 4c00 6d01 f2bf
00000160: ac1c 4900 6d01 f2bf 9820 4b00 6d01 f2bf
00000170: ca67 d9d4 897e 22c0 bb5a afd4 897e 22c0
00000180: 05f9 56f1 6c01 f2bf 2eb7 91fa 6c01 f2bf
00000190: 2e0f 92fb 6c01 f2bf d482 18fe 6c01 f2bf
000001a0: 1160 c2f7 e818 24c0 9afb 963d aebd 23c0
000001b0: 2cd1 4d00 6d01 f2bf 1bdd 4d00 6d01 f2bf
000001c0: de0e 4e00 6d01 f2bf ed52 4e00 6d01 f2bf
000001d0: 7dff b564 bb3f 24c0 3f14 6fbd db19 24c0
000001e0: 0000 0000 0000 0000 0000 0000 0000 0000
000001f0: 0000 0000 0000 0000 0000 0000 0000 0000
00000200: 0000 0000 0000 0000 0000 0000 0000 0000
00000210: ac1c 4900 6d01 f2bf ce0e 4a00 6d01 f2bf
00000220: 29a7 4b00 6d01 f2bf 0a39 4b00 6d01 f2bf
00000230: 7523 bcd5 b76d 22c0 b295 4412 d93f 24c0
00000240: 4966 4e00 6d01 f2bf 6567 4e00 6d01 f2bf
00000250: 4966 4e00 6d01 f2bf 6567 4e00 6d01 f2bf
00000260: 3c62 6ea2 ed64 1cc0 f934 d9d4 897e 22c0
00000270: 2cd1 4d00 6d01 f2bf ef3b 4e00 6d01 f2bf
00000280: 2cd1 4d00 6d01 f2bf 0af9 4d00 6d01 f2bf
00000290: 1234 3f76 531a 24c0 3c62 6ea2 ed64 1cc0
000002a0: 4966 4e00 6d01 f2bf dd67 4e00 6d01 f2bf
000002b0: 4966 4e00 6d01 f2bf c967 4e00 6d01 f2bf
000002c0: f427 5349 df3c 24c0 0939 d9d4 897e 22c0
000002d0: 0000 0000 0000 0000 0000 0000 0000 0000
000002e0: 0000 0000 0000 0000 0000 0000 0000 0000
000002f0: 0000 0000 0000 0000 0000 0000 0000 0000
00000300: efc0 c14b bc9f ebbf b8be 5f06 bfa4 f33f
00000310: fcac c44b bc9f ebbf b0be 5f06 bfa4 f33f
00000320: 5210 683e d016 1fc0 0000 0000 0000 3440
00000330: b4e5 4bb2 4201 f2bf 824f 4b49 6801 f2bf
00000340: b4e5 4bb2 4201 f2bf 4621 fe49 6801 f2bf
00000350: 7132 d95b 2b40 24c0 33d7 bb78 6c01 f2bf
00000360: 5c35 f736 1bf4 f1bf 5721 31bf f0ff f1bf
00000370: 68c8 69d0 4101 f2bf 511e f3b4 deff f1bf
00000380: a3cd 417c b93f 24c0 827f 4bb2 4201 f2bf
00000390: 987f fe49 6801 f2bf 3d29 f079 6c01 f2bf
000003a0: 987f fe49 6801 f2bf 519e f079 6c01 f2bf
000003b0: fd93 bd84 2d40 24c0 c21c 07f0 6c01 f2bf
000003c0: 0000 0000 0000 0000 0000 0000 0000 0000
000003d0: 0000 0000 0000 0000 0000 0000 0000 0000
000003e0: 0000 0000 0000 0000 0000 0000 0000 0000
000003f0: 467b a3fe 6c01 f2bf 90e1 55f1 6c01 f2bf
00000400: d29a 55f1 6c01 f2bf 749e f079 6c01 f2bf
00000410: aa6d d2ee 403f 24c0 14e8 f5f1 e83f 24c0
00000420: 6850 e279 6c01 f2bf ee69 ef49 6801 f2bf
00000430: 542a fd49 6801 f2bf b4e5 4bb2 4201 f2bf
00000440: 048e 135d e83f 24c0 3b69 0fe5 2c40 24c0
00000450: ae0e 1300 6d01 f2bf 569f a3fe 6c01 f2bf
00000460: 9ca1 a3fe 6c01 f2bf 05f9 56f1 6c01 f2bf
00000470: 3df6 dc97 2d40 24c0 7d41 822e 2240 24c0
00000480: ac1c 4900 6d01 f2bf 78d1 4c00 6d01 f2bf
00000490: 2b14 4b00 6d01 f2bf 1709 4c00 6d01 f2bf
000004a0: 3050 25d2 b7bd 23c0 9483 e449 6c7e 22c0
000004b0: 0000 0000 0000 0000 0000 0000 0000 0000
000004c0: 0000 0000 0000 0000 0000 0000 0000 0000
000004d0: 0000 0000 0000 0000 0000 0000 0000 0000
000004e0: 5757 4e00 6d01 f2bf 6f62 4e00 6d01 f2bf
000004f0: 0259 4e00 6d01 f2bf 5665 4e00 6d01 f2bf
00000500: 6810 26ad b5bd 23c0 089f e2d3 897e 22c0
00000510: eede 1e00 6d01 f2bf 7c97 2f00 6d01 f2bf
00000520: 103a 3500 6d01 f2bf bc8b 3400 6d01 f2bf
00000530: 33b6 4f48 897e 22c0 6ca9 f7bd 897e 22c0
00000540: 75a3 a3fe 6c01 f2bf 1c0f a3ff 6c01 f2bf
00000550: 1c0f a3ff 6c01 f2bf 75a3 a3fe 6c01 f2bf
00000560: fe6e 3976 531a 24c0 54b9 b8d4 897e 22c0
00000570: 5757 4e00 6d01 f2bf 665e 4e00 6d01 f2bf
00000580: 0259 4e00 6d01 f2bf 5757 4e00 6d01 f2bf
00000590: 5e54 4816 7516 24c0 b48c eca1 e934 24c0
000005a0: 0000 0000 0000 0000 0000 0000 0000 0000
000005b0: 0000 0000 0000 0000 0000 0000 0000 0000
000005c0: 0000 0000 0000 0000 0000 0000 0000 0000
000005d0: 2cd1 4d00 6d01 f2bf 6733 4e00 6d01 f2bf
000005e0: fb3b 4e00 6d01 f2bf 2cd1 4d00 6d01 f2bf
000005f0: e1aa d8d4 897e 22c0 f27c 2ef9 ad9f 23c0
00000600: 5757 4e00 6d01 f2bf 0259 4e00 6d01 f2bf
00000610: 0259 4e00 6d01 f2bf e360 4e00 6d01 f2bf
00000620: fda6 a7cc b7bd 23c0 50d5 36d2 b7bd 23c0
00000630: ac1c 4900 6d01 f2bf b236 4c00 6d01 f2bf
00000640: 3511 4b00 6d01 f2bf 6020 4e00 6d01 f2bf
00000650: a08d 2ed2 b7bd 23c0 a4c1 4bf8 7fb0 23c0
00000660: 5757 4e00 6d01 f2bf 0259 4e00 6d01 f2bf
00000670: 525f 4e00 6d01 f2bf 315c 4e00 6d01 f2bf
00000680: 3c62 6ea2 ed64 1cc0 c9d5 36d2 b7bd 23c0
00000690: 0000 0000 0000 0000 0000 0000 0000 0000
000006a0: 0000 0000 0000 0000 0000 0000 0000 0000
000006b0: 0000 0000 0000 0000 0000 0000 0000 0000
000006c0: 828c 4878 291a efbf 828c 4878 291a efbf
000006d0: 828c 4878 291a efbf b8be 5f06 bfa4 f33f
000006e0: 3c62 6ea2 ed64 1cc0 3c62 6ea2 ed64 1cc0
000006f0: 9e66 d132 f1ff f1bf f2aa 4152 2301 f2bf
00000700: 9ca2 538f d600 f2bf 5c86 0460 2b01 f2bf
00000710: f216 19f0 737e 22c0 4cb9 8d11 867e 22c0
00000720: 9248 5ed1 efff f1bf 9ca2 538f d600 f2bf
00000730: 9ca2 538f d600 f2bf 8d76 339c efff f1bf
00000740: 3c62 6ea2 ed64 1cc0 48c9 a487 c2ba 23c0
00000750: b4e5 4bb2 4201 f2bf d65e f9df 5801 f2bf
00000760: 3eec bcb4 6301 f2bf c0eb c13a 4b01 f2bf
00000770: 7523 bcd5 b76d 22c0 3c62 6ea2 ed64 1cc0
00000780: 0000 0000 0000 0000 0000 0000 0000 0000
00000790: 0000 0000 0000 0000 0000 0000 0000 0000
000007a0: 0000 0000 0000 0000 0000 0000 0000 0000
000007b0: eede 1e00 6d01 f2bf 6797 4700 6d01 f2bf
000007c0: acaa 4b00 6d01 f2bf 328e 3500 6d01 f2bf
000007d0: 1869 741f 531a 24c0 46fd d8d4 897e 22c0
000007e0: 05f9 56f1 6c01 f2bf ca7a 6df8 6c01 f2bf
000007f0: 9161 20ff 6c01 f2bf 24eb 01f3 6c01 f2bf
