Taxi-v2/model.npy (npy, 24128 bytes, 1 tensors)

array f8 [500, 6]
0	0x0000000000000000	0.0
1	0x0000000000000000	0.0
2	0x0000000000000000	0.0
3	0x0000000000000000	0.0
4	0x0000000000000000	0.0
5	0x0000000000000000	0.0
6	0xbffa2dcc62d0bd4b	-1.6361812458015546
7	0xbffa20492e54ac0a	-1.6328822908205916
8	0xbffa34a3e94bb419	-1.6378516305078448
9	0xbffa2337368b297f	-1.6335975771531535
10	0xbffa19439de481fe	-1.631168000000002
11	0xc024f5991912846e	-10.479683669577039
12	0xbff964f937560e34	-1.5871517335480236
13	0xbff8b6a0b7ab3221	-1.5445868658599766
14	0xbff8fb4cb29ddf84	-1.561352441522076
15	0xbff8f260cf3b5f10	-1.5591743559834335
16	0xbff71de69ad42c4a	-1.444800000000003
17	0xc0249ef4cee7c01d	-10.31046148852334
18	0xbffa7861dda3111d	-1.6543902070707823
19	0xbffa74764535563f	-1.6534331038905206
20	0xbffa7dd7c36bb803	-1.6557233461021503
21	0xbffa71b69c9c59c2	-1.6527620427710734
22	0xbffa7081725b66b6	-1.6524671999999732
23	0xc024c938dd0f760f	-10.393011959206914
24	0xbffaa9bd24503dc7	-1.6664401453489164
25	0xbffaa9b99bd5f3c1	-1.6664367759069452
26	0xbffaa9b429cd20d0	-1.6664315827238632
27	0xbffaa9b5993023e8	-1.6664329513462182
28	0xc0242805fdb4606a	-10.078170707958822
29	0xc0227b0a85658376	-9.240314644471919
30	0x0000000000000000	0.0
31	0x0000000000000000	0.0
32	0x0000000000000000	0.0
33	0x0000000000000000	0.0
34	0x0000000000000000	0.0
35	0x0000000000000000	0.0
36	0xbffaaa86a0c3a8c3	-1.6666322975020627
37	0xbffaaa86acf7ec72	-1.6666323429660932
38	0xbffaaa871998e99c	-1.6666327476401426
39	0xbffaaa86a4b14e22	-1.6666323121361377
40	0xc0253cc7c3b3b43a	-10.618711581884885
41	0xc0252e60db07eb95	-10.59058269950564
42	0xbffaa86bcd9849f0	-1.6661184340524606
43	0xbffaa87386c67f1c	-1.6661257996237913
44	0xbffaa85f0c56113c	-1.6661062700159865
45	0xbffaa8648c8cfde0	-1.6661115160239817
46	0xc02242b2da3e00c3	-9.13027078635094
47	0xc0246c63fa748151	-10.211700274202174
48	0xbffa935485ca12f4	-1.660969278921752
49	0xbffa940a5a54063d	-1.6611426857420064
50	0xbffa95188b402542	-1.6614003600573857
51	0xbffa93bba7ff4b1c	-1.6610676348106557
52	0xc0250d8d27495569	-10.526467540456638
53	0xc024c9ee469c5b64	-10.394396025263354
54	0xbffaaa0c8e4fbb58	-1.6665158804932698
55	0xbffaaa13bbfe38fe	-1.6665227263907236
56	0xbffaaa12c13d20bd	-1.6665217922582507
57	0xbffaaa151dd9fe02	-1.6665240446162675
58	0xc024de5ae95ad9f0	-10.434287350025414
59	0xc0251eb70ab97ead	-10.559990248816883
60	0x0000000000000000	0.0
61	0x0000000000000000	0.0
62	0x0000000000000000	0.0
63	0x0000000000000000	0.0
64	0x0000000000000000	0.0
65	0x0000000000000000	0.0
66	0xbffaa92997c524bb	-1.666299431659623
67	0xbffaa939e942a28c	-1.6663149940233408
68	0xbffaa93148b9fa40	-1.6663067665937348
69	0xbffaa931779bffb4	-1.6663069412461313
70	0xc025145566165583	-10.539714040972063
71	0xc025137d48cb671a	-10.538065218762814
72	0xbffaaa7802c48041	-1.6666183574780151
73	0xbffaaa782df1331e	-1.6666185183159494
74	0xbffaaa78ac9d01b2	-1.6666189902026471
75	0xbffaaa7930c5c2d0	-1.6666194825340206
76	0xc0250715e22dc4b6	-10.51383883293816
77	0xc024e60f2562984d	-10.449334305081857
78	0xbffaa9537cc2a26d	-1.6663393853615631
79	0xbffaa948bd2c7ec0	-1.6663291349031368
80	0xbffaa94742e93126	-1.6663277257640146
81	0xbffaa955cb34f4b2	-1.666341584946434
82	0xc024d666594fa4d2	-10.418749609920642
83	0xc02460109076e88e	-10.187626375689685
84	0xbffaaa74c260dd8a	-1.666615256586598
85	0xbffaaa74ba7b56a6	-1.6666152271695096
86	0xbffaaa770ef7de7a	-1.666617449254686
87	0xbffaaa76ee2333d4	-1.66661732695069
88	0xc0252eb1b561921e	-10.591199558411116
89	0xc0252c64a830c06c	-10.586705451918725
90	0x0000000000000000	0.0
91	0x0000000000000000	0.0
92	0x0000000000000000	0.0
93	0x0000000000000000	0.0
94	0x0000000000000000	0.0
95	0x0000000000000000	0.0
96	0x3ff10d864c14c716	1.0658019039078162
97	0x4016b1d6595cfb86	5.673669239330485
98	0x3ff266b7306a35c8	1.1500770465093968
99	0x401088e29d26a066	4.1336769633127
100	0xc002ecca9d4d8aa2	-2.3656208314217375
101	0x4033fffffffffffd	19.99999999999999
102	0xbff93f290abb44f2	-1.5779200000000029
103	0xbff97a6f76d8a3f4	-1.5923914568359097
104	0xbff941c211738e88	-1.57855421845389
105	0xbff97743c7172070	-1.5916173722235065
106	0xc024e17b6ece97d1	-10.4403948428334
107	0xbff9932dcd0db1d2	-1.5984323511030323
108	0xbff1cac083126ea6	-1.1120000000000032
109	0xbff77f3525684821	-1.4685565434670098
110	0xbff89e9e3502c4a6	-1.53872509677266
111	0xbff7a417eb36a804	-1.4775618732478515
112	0xc024766ae92abfa9	-10.23128441473803
113	0xbff84503ae431218	-1.516849213324468
114	0xbffa19439de48133	-1.6311679999999569
115	0xbffa22e96ae79f5a	-1.6335233856170448
116	0xbffa19439de4812d	-1.6311679999999555
117	0xbffa294e1b4f3a85	-1.6350842539574455
118	0xc024ad560d669b49	-10.338547152304857
119	0xbffa3ec6e9a4568f	-1.6403264166487224
120	0x0000000000000000	0.0
121	0x0000000000000000	0.0
122	0x0000000000000000	0.0
123	0x0000000000000000	0.0
124	0x0000000000000000	0.0
125	0x0000000000000000	0.0
126	0xbffa7492e8156ccf	-1.6534604135293198
127	0xbffa78b2d827ab77	-1.6544674342682961
128	0xbffa7084462021d4	-1.6524698962476707
129	0xbffa7081725b672f	-1.6524672
130	0xc024b3674c3bbcf4	-10.35039747456765
131	0xc02516d359971672	-10.544581222241707
132	0xbff9844000249a4e	-1.5947875981888902
133	0xbff9734663d49540	-1.590643300974378
134	0xbff97ac7bc21cc91	-1.5924756382853824
135	0xbff940028f3919bc	-1.5781274408960675
136	0xc02509b983cb2972	-10.518993490743672
137	0xc025165c2f9b93ba	-10.54367207311758
138	0xbffa98acd255386e	-1.662274190533505
139	0xbffa946d97f053e0	-1.6612373290165507
140	0xbffa9547e3469512	-1.6614455106694703
141	0xbffa9366fa8af3ed	-1.660986879999878
142	0xc0249f43f063ea2a	-10.31106520862257
143	0xc02434660db78f98	-10.102341107041681
144	0xbffaa918cd244825	-1.6662834180210748
145	0xbffaa9235efcd610	-1.666293498082613
146	0xbffaa92dde2e8bce	-1.6663035086610196
147	0xbffaa91974e060fe	-1.6662840428817272
148	0xc0246df4fa40836f	-10.214759655356572
149	0xc0247c072f508723	-10.24224231584555
150	0x0000000000000000	0.0
151	0x0000000000000000	0.0
152	0x0000000000000000	0.0
153	0x0000000000000000	0.0
154	0x0000000000000000	0.0
155	0x0000000000000000	0.0
156	0xbffaaa6c21af723b	-1.6666070285638301
157	0xbffaaa6da7236858	-1.6666084793892164
158	0xbffaaa6ee36a8485	-1.6666096576157383
159	0xbffaaa6d750ff101	-1.6666082928414314
160	0xc02549e8445bdfd8	-10.644350181784759
161	0xc025489dcf4a49fc	-10.641828992670519
162	0xbffaa6ea52843de4	-1.6657508109382144
163	0xbffaa6f8c65ccc88	-1.6657645939383503
164	0xbffaa706e6cec4d5	-1.6657780662465502
165	0xbffaa7045d55738d	-1.6657756467677445
166	0xc024715afc287abd	-10.221397285405482
167	0xc023cc9a26509711	-9.899613568627986
168	0xbffa9e9d705271aa	-1.6637243640499073
169	0xbffa9e8fa5d93a34	-1.6637112120112194
170	0xbffa9ec074c76a08	-1.663757759254283
171	0xbffa9e6a1785018c	-1.6636753958447086
172	0xc0250fed5ae0ce36	-10.531107749883727
173	0xc023b9c6113b9f84	-9.862839258697711
174	0xbffaaa42f88aaa92	-1.666567774644737
175	0xbffaaa46c253d42c	-1.6665713873783359
176	0xbffaaa4369a38bc1	-1.6665681959645868
177	0xbffaaa44e1494daa	-1.6665695953605373
178	0xc0247a2ab39cd1a6	-10.238607037442147
179	0xc024a9bfa965291c	-10.331540387724594
180	0x0000000000000000	0.0
181	0x0000000000000000	0.0
182	0x0000000000000000	0.0
183	0x0000000000000000	0.0
184	0x0000000000000000	0.0
185	0x0000000000000000	0.0
186	0xbffaa9cadb8afb50	-1.6664532256979392
187	0xbffaa9cbb6416f2c	-1.6664540404662587
188	0xbffaa9cf898f46b1	-1.6664576886582092
189	0xbffaa9c6b02d2f72	-1.666449249448274
190	0xc0252127566d61cd	-10.564753247120189
191	0xc02525ea29a82c2d	-10.574052144793393
192	0xbffaaa6675db3ca6	-1.6666016200795553
193	0xbffaaa690064933d	-1.6666040435167837
194	0xbffaaa67dbc85200	-1.6666029534582094
195	0xbffaaa669c71856c	-1.6666017638275106
196	0xc024bf4b5b0840a4	-10.373621792561899
197	0xc0249d8908202337	-10.307686094210665
198	0xbffaa8dcf42a30f7	-1.666226342934406
199	0xbffaa8dce832a111	-1.66622629835371
200	0xbffaa8e49d7a9de1	-1.6662336493990255
201	0xbffaa8f076bfe555	-1.6662449492126445
202	0xc02471ca103efdcd	-10.222244746865636
203	0xc0250c18d2eb162d	-10.523626891324136
204	0xbffaaa63622a6e7b	-1.666598685703234
205	0xbffaaa63893ba437	-1.6665988312399926
206	0xbffaaa66b16fc323	-1.666601842033011
207	0xbffaaa6770b94447	-1.6666025546330887
208	0xc0253a519e9a07be	-10.613903957655449
209	0xc0254d68e980ec74	-10.651191040981054
210	0x0000000000000000	0.0
211	0x0000000000000000	0.0
212	0x0000000000000000	0.0
213	0x0000000000000000	0.0
214	0x0000000000000000	0.0
215	0x0000000000000000	0.0
216	0xbfdbf6f2beed4922	-0.436947523548172
217	0x3fe9482f56a8e7ac	0.7900616352628638
218	0x3fddabd787c42732	0.46361339815540525
219	0x401bfffffffffff6	6.999999999999991
220	0xc01e010d73dd272e	-7.501027880070792
221	0xc01c0dd43a2e79a8	-7.013504895292876
222	0xbff742a07a6814bd	-1.4537663251406194
223	0xbff7c2c17bf54996	-1.4850478021731752
224	0xbff80d2d709b33d9	-1.5032171629602458
225	0xbff7c89e1c85953d	-1.4864789117940085
226	0xc0243cadfbd099dc	-10.11851488992118
227	0xc024307ebcb9389d	-10.094716928110126
228	0xbff7b7f81edbc43b	-1.4824143605622015
229	0xbff7b577ae494911	-1.4818035896356074
230	0xbff7c2663740b43e	-1.484960761862808
231	0xbff7960a5fd71545	-1.4741309875256132
232	0xc024c1a30fb2b188	-10.378197184146089
233	0xc024eac0a2d905c0	-10.458500946990966
234	0xbff93f290abb44dc	-1.577919999999998
235	0xbff947bbc8ab0710	-1.5800130690190066
236	0xbff941af576bfc2c	-1.5785363593020163
237	0xbff95fb684d2f3e5	-1.5858674229086713
238	0xc0224be94ee7b361	-9.148264375480439
239	0xc021ef847fa40f6c	-8.967807759072194
240	0x0000000000000000	0.0
241	0x0000000000000000	0.0
242	0x0000000000000000	0.0
243	0x0000000000000000	0.0
244	0x0000000000000000	0.0
245	0x0000000000000000	0.0
246	0xbffaa6ea5f05334a	-1.6657508575182924
247	0xbffaa70e11f51c52	-1.6657849027121938
248	0xbffaa735ab77514f	-1.6658226678747103
249	0xbffaa700bf49b650	-1.6657721969781
250	0xc024ae77ce9030b4	-10.340757804013585
251	0xc024cd80c20e560f	-10.401372970819493
252	0xbffa935309fa7709	-1.6609678640156196
253	0xbffa935e0c35714b	-1.6609783627419172
254	0xbffa94dedf184de1	-1.6613453592916516
255	0xbffa93aa32e622a6	-1.661050986122214
